Notebooks/mnist_model.pth (torch, 440112 bytes, 6 tensors)

fc1.weight f4 [128, 784]
00000000: 958c 73bc 5ae8 28bc dd04 08bd d994 6bbb
00000010: e20b 4f3c 917e f7bb 7d82 c03c 851b c9bc
00000020: e56a b7bb 31d6 cc3c 44a9 fe3c 0c30 a5bc
00000030: e2c0 64bc 009b 373b 53d6 033c 67dd 06bd
00000040: 3270 3e3c 89e1 c4bc af92 a33c 8c7a 16bc
00000050: be78 4abc 9f24 fc3c 6302 083c c8a5 02bc
00000060: 5f3e b83c 405f 91bc 6ff5 eabc 527d 06bd
00000070: be01 533c dad9 4a3c 8381 0fbd d9f5 e93c
00000080: 65a2 dc3c ebc4 043d 5e14 adbb 5b1a d4bc
00000090: 3167 2a3b ca9f 6838 855f 70bc 094f 103d
000000a0: d759 e4bc 892d 2b3c 70a3 383c 2ab6 84bc
000000b0: 238d 8bba 3ca3 3bba 0cea d93c 0b4e f5bc
000000c0: eee5 013d 74ed d2bc 70a1 763c 3fd5 04bd
000000d0: b95d bdbc ca32 273b 13f8 13bb 026e 073d
000000e0: 3db8 e93c b564 c13c 178b 19ba e448 04bc
000000f0: 8eee d93c 6d92 b7bc d5c3 d1bc 362e 723b
00000100: dc01 093d 3f21 f53c 7410 e83c 3f0b 05bd
00000110: 76f1 c73c 4c4a d83a 6bc0 10bd 9350 6dbb
00000120: 5e71 bdbb 050b bfbc 0d01 ec3c 69d5 09bd
00000130: 0711 b3bc dc9e 81bc aac3 a33c c771 a93c
00000140: 3b9d 0abd 2c0c ddbc 93d1 e0bc 2301 bfbc
00000150: f0b6 05bd d367 d7ba 560e 983c be7b 24bc
00000160: fbd3 833c 73f9 583c a93d ecbc 5663 06bd
00000170: 98e9 54bc 771c c3bc 3cf2 463c ae6d 213c
00000180: d4b8 2e3b 0f02 07bd 7e3d c9bc f200 1b3c
00000190: aef6 a7bc 85b2 1c3c cd02 c3bc 1ecb 05bc
000001a0: 60c3 a8bc ded3 c1bb a602 883c 277b 8e3c
000001b0: e66e 153c dd2a ebbc e518 d0bc 4319 0cbd
000001c0: 89e5 b9bc 03c1 e63c 8f62 0bbd dd5d 9a3c
000001d0: 284b 31bc 721c dabc 8c8b 1abc 354e 6e3c
000001e0: 156e c23a 84b9 643c 347e 1ebd 2c39 6f3a
000001f0: 5b66 9abc e47f 303c de81 e13b 98dd bc3c
00000200: f9be 023d bfa7 b93c 1e1a ad3c dc08 043d
00000210: 289d 7d3c bcdb 49bc e6b0 093d b927 b73c
00000220: 2c5e 8bbc a2e5 013d ba9b f03c 2773 f23c
00000230: ac88 1fbc 08b0 fc3b 85c3 25bc 4bc0 f6bc
00000240: dd35 883c 29bc 003b 9e26 e6bc bff4 4ebd
00000250: c4a3 34bb c559 c6bc 8747 0abd e0e4 a4bc
00000260: c855 6fbc b037 713c 5b53 1ebd 641b 2bbd
00000270: 6f33 25bc 29b6 253c 52c8 833c fb60 343d
00000280: 5db8 e33c 59b3 013d 270a 393c b4e7 8dbc
00000290: 47fe a23c 92d7 d3bb 5771 c5bb 5021 b93c
000002a0: 83f8 f7bb ffcc e5ba b33b 02bd f51d d7bc
000002b0: 9f16 b4bc 18d0 2ebd 4523 13bd b346 12bd
000002c0: 12bf 54bd 9831 63bd 87ba dbbc a8a3 2ebd
000002d0: 8775 1ebb 5cc2 ecbc 2ab2 8a3c 1f29 b5bc
000002e0: 9f94 12bd dd68 0d3d c7bd 3eba 9dba 1cbc
000002f0: a95f edbb f601 22bc 5f03 3b3c fcaf 1f3c
00000300: d7a7 8dbc 28fc 55bc 6b37 4e3c 5e21 ccbc
00000310: ffcb 0a3d b1bd a13c 509d 97bc 8275 1dbd
00000320: 5930 cb3b bba4 543c 2d75 09bd 99e2 73bc
00000330: 9aa3 9e3b 6de6 1dbd 547a 18bd 940f d03c
00000340: ecbc f4bc 5551 023c d430 14bd ac3f 033a
00000350: 0180 863c 6cbd 603c 50e9 203d 5792 d43c
00000360: 8dd4 de3c b528 fa3c f22b e53c 5352 803d
00000370: cd15 683d 6c85 c43c 63f0 d2bc 547b ffbb
00000380: e22a ef3c f957 70bc f543 063d f643 e4bb
00000390: b789 77bb d5f5 1abd a2a0 17bd dfcc 1ebd
000003a0: fa6f 0abb e25f 9ebc 45c1 03bd 56c5 dbbc
000003b0: 509c f4bb 91b5 9a3c fc7b 733c 7024 66ba
000003c0: 4c80 c03b 2bc4 a73b aa0d d3bc 73da 3d3c
000003d0: bc2a afbc cf32 e93b 6c57 e73c cd46 1c3c
000003e0: 36f9 543d 3815 9ebb 6570 dbbc 9a31 10bd
000003f0: f03d 39bc 1321 3d3c 63f5 f93c 8ef8 913c
-0.01486506 -0.010309303 -0.033207763 -0.0035946874 0.01263711 -0.0075529297 0.023499722 -0.024549255
-0.0055974596 0.025004478 0.031086572 -0.020164512 -0.0139620025 0.0028015971 0.008046704 -0.03292599
0.011623429 -0.024033325 0.019967405 -0.009184491 -0.012357889 0.030779181 0.00830135 -0.007974096
0.022490678 -0.017745614 -0.028681485 -0.03283436 0.012878833 0.012381041 -0.03503562 0.028559612
0.026932904 0.032414358 -0.005281969 -0.025891474 0.0026001448 5.5461926e-05 -0.014671211 0.035231624
-0.02787487 0.010447868 0.011269435 -0.016200144 -0.001064692 -0.00071578077 0.02660086 -0.02994444
0.03171342 -0.025747992 0.015053138 -0.03242993 -0.02311598 0.002551245 -0.0022578284 0.033063896
0.028530234 0.023607591 -0.0005857213 -0.008074019 0.02660301 -0.022408688 -0.025606075 0.0036953813
0.03344904 0.02992308 0.028328158 -0.03248143 0.02440713 0.0016501634 -0.035339754 -0.0036211356
-0.0057813367 -0.023320684 0.028809095 -0.03365079 -0.021858705 -0.01582282 0.01999076 0.020684136
-0.033841353 -0.026983343 -0.027443683 -0.023315972 -0.032645166 -0.001643414 0.018561523 -0.010039268
0.016092291 0.013243067 -0.028837996 -0.032809578 -0.012995146 -0.023817284 0.012142714 0.00985281
0.002666046 -0.032960948 -0.024565455 0.009460675 -0.020503368 0.009564047 -0.023805046 -0.008166103
-0.020600975 -0.005915149 0.016602825 0.017392708 0.0091206785 -0.028706962 -0.025402496 -0.03420378
-0.022692459 0.028168207 -0.03402954 0.018843586 -0.010821141 -0.026624892 -0.009432685 0.014545013
0.0014833832 0.013960246 -0.038694575 0.0009125646 -0.018847635 0.010772679 0.0068819365 0.023054883
0.031920407 0.022662995 0.021130618 0.03223501 0.0154793635 -0.012320455 0.03361597 0.022357808
-0.017012678 0.031713136 0.029371131 0.029595925 -0.009737175 0.0077114142 -0.010117416 -0.03012099
0.016627247 0.0019643402 -0.028094586 -0.050526377 -0.0027563432 -0.024212727 -0.03375962 -0.020128667
-0.014607854 0.01472275 -0.038653713 -0.04177417 -0.0100830635 0.010114231 0.016086731 0.0440378
0.027797872 0.03166518 0.011293924 -0.017322399 0.01989664 -0.006464907 -0.006025474 0.022598892
-0.0075674667 -0.0017532407 -0.031795215 -0.026259402 -0.021983443 -0.042678922 -0.035922308 -0.035711955
-0.05194003 -0.05546722 -0.026822342 -0.042636544 -0.0024178938 -0.028901272 0.016930658 -0.022114335
-0.035786267 0.034523834 -0.0007276204 -0.009565976 -0.0072440696 -0.009888163 0.011414378 0.009746548
-0.017291946 -0.013060607 0.012586455 -0.024918254 0.033885952 0.019743772 -0.01850763 -0.038442142
0.006200832 0.012978728 -0.033559013 -0.014885568 0.00484128 -0.03854983 -0.037226036 0.025398053
-0.029875241 0.007953961 -0.03617938 0.0005006741 0.016418459 0.013717037 0.039285004 0.025948687
0.027200961 0.030536989 0.027975056 0.06265702 0.056661416 0.023989402 -0.025749391 -0.0077966843
0.029195253 -0.014669412 0.032779653 -0.0069661094 -0.0037771293 -0.0378321 -0.037018426 -0.0387696
-0.0021123872 -0.01933283 -0.032166738 -0.026827496 -0.007464923 0.018885406 0.014861103 -0.00087792333
0.005874669 0.0051198206 -0.025763351 0.011587727 -0.021382682 0.0071166526 0.028239928 0.009538365
0.05199548 -0.004824307 -0.026786992 -0.035203554 -0.011306271 0.01154353 0.030512517 0.017818715

fc1.bias f4 [128]
00000000: 346b 77bc 8c61 393d 20e3 92bc 3de3 fdbc
00000010: 1297 97bc e24a c23b 84c8 593c d898 a3bb
00000020: cfdc 5ebc a681 b0bc 4fbf b23c c525 02bd
00000030: 8f31 89bb 65e2 0c3d 5f0a d1bc 8838 2e3c
00000040: 5b38 36bc 2d05 a03c 4698 7f3c 4e01 03bc
00000050: 056f b33c acab f6bc f3c0 6c3c 572d 9d3c
00000060: 7fe1 5c3c 3920 5abc 7ce0 883b 1407 8abc
00000070: 9fb9 01bd 63b0 adbc 2ebe 09bd 23d3 033c
00000080: 959e 24bc 38df 59bc 7a1d 043d c505 d93c
00000090: 4c9f 8d3c c644 a3bc 7999 1b3c a1a8 8abc
000000a0: 22f2 0dbd 9185 f33c fef5 11bd 223c d43c
000000b0: b849 c33c 3c5e 723b a0e3 8bbc 0bb5 6bbb
000000c0: 32f8 a53c 7dd3 0b3d 7983 703b b185 9cbc
000000d0: 0369 153c 0993 0cba b9c0 3d3b c475 84bc
000000e0: 7254 8c3b 3947 09bc 3e25 7e3b fcee 63bb
000000f0: 3641 f4bc 3c33 96bc b760 103c 3106 b3bb
00000100: e1d8 88bc 9c20 263c 1b8a ef3c 994f e8bc
00000110: e458 fcbc 9cf9 d43b 28e1 c43c dad7 72bb
00000120: 9595 093d dfd2 feba df18 103d 5b48 c43c
00000130: 3c42 2dbc 7d7a 32bb 6196 2f3c f05f c53c
00000140: 55e0 09bd e0c2 e1bc ba65 f8bc 6b55 71bc
00000150: 979e 053d 210f 83bc e4cd a53c f14a f23c
00000160: 46aa 9cba 91ce b03c 047a 9abc 2b49 23bc
00000170: eda9 73bc 20c7 edba 32b8 133d c298 0abb
00000180: e8bd 483c 10d0 e43c be82 49bc 7f55 003d
00000190: f123 9e3c 53ae 82bc 31bb 7a3c a4a7 a2bb
000001a0: 220b 87bc 2e8d efbc 5928 d538 9ed3 9b3c
000001b0: 2ae5 d73a 0a09 82bc 86ea f2bc af44 30bb
000001c0: f227 13bb 1e02 43bc bdd3 f7bc 4c74 d13b
000001d0: c4cb a3bc d148 40bc e7ba 5fbc 63d5 4ebc
000001e0: 84f0 2ebc ba2a 063d a04c 83bc 8c37 fb3c
000001f0: 4c91 913c 727e 23bb c601 73bc 599e 96bb
-0.015101243 0.045259044 -0.017930567 -0.030992145 -0.018504653 0.005929337 0.013292436 -0.0049925856
-0.01360245 -0.021546196 0.021819739 -0.0317743 -0.004186816 0.034395594 -0.02551764 0.010633595
-0.011121835 0.019533718 0.01560027 -0.0079959165 0.021903524 -0.030111156 0.0144503 0.019186659
0.013481497 -0.013313347 0.0041771512 -0.016849078 -0.031671163 -0.021202272 -0.033628635 0.008045944
-0.0100475745 -0.013297848 0.032254674 0.026492009 0.017287873 -0.019930255 0.00949704 -0.016926112
-0.034654744 0.029726775 -0.035634987 0.02590758 0.023838863 0.0036982438 -0.017076313 -0.0035966064
0.02025995 0.034137238 0.0036699458 -0.019106718 0.009119275 -0.0005362486 0.0028953983 -0.016169436
0.0042825276 -0.008378797 0.0038779522 -0.0034779897 -0.029816251 -0.018334977 0.008812121 -0.0054633846
-0.016704978 0.010139611 0.029240659 -0.028358268 -0.030804105 0.0064994823 0.024033144 -0.0037054927
0.03358992 -0.0019441507 0.03517997 0.023960283 -0.010574874 -0.0027233653 0.0107170055 0.024093598
-0.033661205 -0.027558744 -0.030321945 -0.014729838 0.032621946 -0.015998425 0.020239778 0.02957675
-0.0011952601 0.021582874 -0.01885701 -0.009966175 -0.014872056 -0.0018141009 0.036064334 -0.002114818
0.012252308 0.027931243 -0.012299238 0.031331535 0.019304248 -0.015952265 0.015303419 -0.004963832
-0.0164848 -0.029242124 0.00010164147 0.019021805 0.0016471494 -0.01587345 -0.029652845 -0.0026896407
-0.002245423 -0.01190236 -0.030252332 0.0063920375 -0.019994624 -0.011736111 -0.013655401 -0.012624118
-0.010677461 0.03275559 -0.016027749 0.030666135 0.017769478 -0.0024947193 -0.014831966 -0.004596513

fc2.weight f4 [64, 128]
00000000: c033 42bd 3aeb ac3d 17b4 b33b d11b 26bd
00000010: 452b a1bd 7618 70bd d92b 48bd e42f 323d
00000020: 379f 723d dc6a a73d 1ace a93d c9e5 93bb
00000030: 3633 d53d 738c d73c ea69 7dbd 5a5f e33b
00000040: 5a15 5a3d 3d7a 96bd 1f93 5e3c 321a 00be
00000050: 2187 3fbd b8f7 2b3d d409 37bc a444 aa3d
00000060: ee9b 013d 413e 913c 487d 07bc b8fc 323d
00000070: dca5 ab3d 9e47 a3bd 024b 733c e667 03bd
00000080: d9ed 8bbc 9a43 4cbd b851 cf3d 9e98 b9bc
00000090: f249 b7bd 3592 81bd 26bb 6dbd 6edc fb3c
000000a0: 87de 00bd 2abc af3d 293c 5b3d e257 903d
000000b0: 26f0 13bd 26b7 4b3d a9c9 0ebd 6e38 6b3d
000000c0: bf96 5cbd 00cd 55bc 10c9 9abd 80d0 423d
000000d0: fcee cf3d ce6f 9b3d a2b8 64bd fd32 6e3d
000000e0: 811f 1e3d 3caa a83d bb17 1d3d cd8b a2bd
000000f0: 3485 a83c 7258 673d 3b97 ad3c 3e9c ebbd
00000100: 9811 0dbd 939d db3b e6df 3d3d 9a40 ca3d
00000110: 1543 8d3d b907 443d dc8e e3bb 2387 b7bc
00000120: c032 8b3d bd8f ffb9 4212 293d 8ad7 2f3b
00000130: 77ba 9abd d563 69bd 4656 233d 4f75 54bd
00000140: ef39 a43d 22f0 90bc ba16 753d 0e29 70bd
00000150: 4250 f73c 6b03 913c b18d b73d 976b 4d3d
00000160: d694 9dbd 783e 00bc 576d 593d 4d20 6e3d
00000170: 80d4 813d fd61 d93c 2a73 db3d 3cbc 263d
00000180: 5895 9d3b 4776 d2bd 03cc bbbc 3eec 82bd
00000190: 8f9b b53d bbb1 9c3d df6a 4ebc 5b66 843d
000001a0: eb82 ad3d 5b84 913d d074 86ba 02c3 d13b
000001b0: 2f8e d1bc 81d4 8c3d dbfc 97bc dbd1 6a3c
000001c0: 47f4 5d3d 2951 90bd 2cb2 243c 1002 183d
000001d0: 319d 913d e9e9 b0bc 1cb2 7cbb 4952 95bd
000001e0: 8d67 a13d 2776 383d 95c2 94bd ee71 3c3d
000001f0: 362a 143e e2b1 043d dff7 8fbc e425 c4bd
00000200: 36f3 a4bd d334 853b de2f b63b b85a 333d
00000210: df19 2c3d be28 b83d 529e 8abd fab6 133d
00000220: 88aa 77bd e314 9d3c 3035 b73c 8760 b8bd
00000230: d42f a63d 65d8 1abd aee6 22bd 2029 aebd
00000240: db17 8fbd b89f 44bc 6181 7cbd 64b3 2e3c
00000250: 4cd9 90bd 77b3 463d 5044 25bd e8fd 533d
00000260: f844 a5bd 4827 183b 18fd ba3b 78b0 213d
00000270: fc99 d4bc c0c9 0b3c ef88 0fbd 3187 86bd
00000280: 3c94 2a3d a209 3abd 2e55 b4bd 9725 7c3d
00000290: c3be 863d 3938 943b 99b1 063d 482c d63c
000002a0: 6671 a83d 7c65 a83d b69e 81bd 2556 8fbd
000002b0: dc10 093d cd6f e73c 783c 643b 41f6 1f3d
000002c0: 6f10 67bb 8c66 40bd 4f03 2c3d 2225 81bd
000002d0: 52ae 9fbd 9dea 41bd c1ed a73d 65ff 893d
000002e0: aab1 23bd a684 c03c 0437 af3d 30a2 8a3d
000002f0: f986 bcbc f430 a1bd ef3b 6c3c 8b69 0fbd
00000300: 67fe f93c 2c59 c6bb 034a a23c 5f77 0f3e
00000310: c247 203d 129d cf3d 3bfa 90bd a66e a13b
00000320: 097f b73d f016 f83c d3d6 943d d28f a23d
00000330: 2933 803d 351e 88bc 4116 913d 3fac 963c
00000340: c397 8cbd 628d 113d 1e99 f8bc 5594 1e3d
00000350: 51bf 0ebd 8535 6cbd 002c e4bc 8c82 94bd
00000360: 89d8 ccbb 2bfe a13d 76fe c43d 4bf1 d9bc
00000370: 49d2 0abd 7abb ad3d e43e 143d a0ba a2bd
00000380: a5e5 933d 1170 643c f46f ea3c 6c3f c4bd
00000390: cd8b ca3d 9efd 1b3d 128e 37bd c196 debc
000003a0: 68b3 8f3d b853 48bd 136b aa3d c727 f3bb
000003b0: 6b9b 86bd 244a 703d 4c54 87bc a265 1b3d
000003c0: 625c 8ebd b96b c83d c6a1 dfbc 05ff 11bd
000003d0: 2a0a 403d b641 f93b 9b02 9f3d bd41 a43d
000003e0: bb52 9cbd 4988 ae3d eda0 19bd 4c65 873c
000003f0: f29e 923d 8dbb 123d 37ba a6bc e2c8 c9bd
-0.047412634 0.084433034 0.005484115 -0.04055387 -0.07869581 -0.058617078 -0.04886994 0.043502703
0.05923387 0.08174679 0.08291264 -0.0045134765 0.10410158 0.026312089 -0.061868586 0.006938857
0.05324302 -0.07347534 0.013584881 -0.12509993 -0.04675973 0.04198429 -0.011171777 0.083138734
0.031642847 0.01772988 -0.0082696155 0.043698043 0.083812445 -0.07972644 0.014849426 -0.032081507
-0.017081188 -0.049869157 0.101230085 -0.022655781 -0.08949651 -0.06326715 -0.058039807 0.030744758
-0.03146222 0.08580811 0.05352417 0.07048012 -0.036117695 0.04973521 -0.034860287 0.057426862
-0.0538547 -0.013049364 -0.07557881 0.047562122 0.101530045 0.075896844 -0.055840142 0.058154095
0.038604263 0.08235595 0.03835271 -0.07936821 0.020571329 0.056480832 0.021190276 -0.1150441
-0.034440607 0.006702134 0.046356104 0.09875603 0.068975605 0.047858927 -0.0069445204 -0.022403305
0.06796789 -0.00048744484 0.041277178 0.0026831352 -0.075550966 -0.056979973 0.0398772 -0.051869687
0.080188625 -0.01769263 0.059836127 -0.058632903 0.030189637 0.017701825 0.08962572 0.050151434
-0.07694404 -0.007827394 0.05308279 0.058136273 0.06339359 0.026535982 0.10715325 0.040706858
0.004809063 -0.10276466 -0.022924429 -0.06392716 0.08867561 0.07651087 -0.012598722 0.06464835
0.08472236 0.07105323 -0.0010258202 0.0064014206 -0.025580494 0.068764694 -0.018553188 0.01433226
0.05418804 -0.0704673 0.010052245 0.037111342 0.0711006 -0.021595912 -0.003855831 -0.07291085
0.07881079 0.045034554 -0.07263676 0.04600709 0.14469227 0.032396205 -0.017574249 -0.095775396
-0.08054201 0.004065135 0.0055599054 0.043787688 0.04201686 0.08992146 -0.067684785 0.036063172
-0.060465366 0.019174999 0.022364229 -0.09002786 0.08114591 -0.037804026 -0.039770775 -0.08503938
-0.06986972 -0.012000971 -0.061646823 0.010662887 -0.07072696 0.048510995 -0.04034835 0.051755816
-0.08069795 0.0023216773 0.0057064407 0.039474934 -0.025952332 0.008531988 -0.0350427 -0.065687545
0.041645274 -0.045419343 -0.08805309 0.061559286 0.06579354 0.004523304 0.032884214 0.026144162
0.08224754 0.082224816 -0.063291 -0.06998853 0.033463344 0.028251553 0.0034826081 0.039053205
-0.0035257598 -0.046972796 0.041995343 -0.06305911 -0.07796921 -0.047342885 0.08199645 0.06738166
-0.039964356 0.023500752 0.08555415 0.06769216 -0.023013579 -0.07870665 0.014418586 -0.035012763
0.030516816 -0.0060531106 0.019810682 0.1401038 0.039130934 0.10137381 -0.07078978 0.0049265204
0.08959777 0.030284375 0.07267537 0.07937588 0.06259758 -0.016615966 0.07084323 0.01839268
-0.06864884 0.035535224 -0.03034645 0.03871568 -0.034850422 -0.057668228 -0.027853012 -0.07251462
-0.006251399 0.07909807 0.09618847 -0.026604315 -0.03389195 0.08483024 0.03619279 -0.07945752
0.072215356 0.013942734 0.028617837 -0.09582409 0.09889946 0.038083665 -0.044813223 -0.027171494
0.07016641 -0.048907965 0.08321204 -0.0074205133 -0.065726124 0.058664456 -0.016519688 0.03793872
-0.069512144 0.097861715 -0.02729882 -0.035643596 0.046884693 0.0076067103 0.07764169 0.08020351
-0.07632967 0.08522088 -0.037506986 0.016527794 0.07159223 0.035823394 -0.020352466 -0.098527685

fc2.bias f4 [64]
00000000: 2596 1e3d 6458 62bc d36b 8abc 535d fbbc
00000010: 3141 27bd f599 b3bc c1fa 95bd 26ec 843c
00000020: 0672 d93b 5b98 43bc 5516 203d c3fc 13bd
00000030: 2334 38bd 43b0 193d b39e 513c 5613 9b3d
00000040: 1048 423a e609 4abd 761a 623c b2e3 6fbd
00000050: 263b 5cbd dd65 67bc 7dee 953d ef9c ad3d
00000060: bb00 583b 119d 3dbc 606e 3bbd 25e4 303d
00000070: 46a0 5bbd 5610 c0bb 2c8f 93bd 4d1d 263d
00000080: d2b6 91bd ac02 5bbd a9ff 703d 213d 8dbb
00000090: 9ecb 1a3c df3e 7c3d a8c6 7dbd a3d8 d6bc
000000a0: b35c 8cbd 1b71 aa3d d5ac c93d d409 68bd
000000b0: c7fc c1bd b9a8 31bd 16a5 1a3d d6df d2bc
000000c0: aa57 b83d 037a 823c f40e a4bc f42e 08bd
000000d0: 70b1 7abd 767f 9dbd ec7b 92bc 10e6 a43d
000000e0: 2573 c83c c598 c73d 0fe1 9b3c 9b36 c63d
000000f0: 9001 3f3c d804 59bc 2b2d 77bd 2f7f 133d
0.038717408 -0.013815019 -0.016897118 -0.030684149 -0.040833656 -0.021923998 -0.07323218 0.016225886
0.006635907 -0.01193818 0.039083797 -0.036129724 -0.044971596 0.037521612 0.0127941845 0.075720474
0.0007411251 -0.049325846 0.013800254 -0.058566757 -0.053767346 -0.014123407 0.07320879 0.08477198
0.003295942 -0.011573092 -0.04575956 0.043186326 -0.053619646 -0.0058613224 -0.07205042 0.040555287
-0.07114948 -0.053469345 0.058837567 -0.0043102656 0.00944796 0.061583396 -0.06195703 -0.026226347
-0.068536185 0.083223544 0.09847418 -0.056649998 -0.094720416 -0.043373797 0.037755094 -0.025741499
0.090010956 0.01592732 -0.020026661 -0.033247903 -0.061204374 -0.07690327 -0.017881356 0.080516934
0.024468968 0.09745935 0.019028215 0.09678384 0.011658087 -0.013245784 -0.06034581 0.036009964

fc3.weight f4 [10, 64]
00000000: 23e3 61bd b667 20be 107a 59be 3fb3 8abe
00000010: 7af2 d8bd acd3 24be 7ac0 563d 3212 80bd
00000020: 22ee 193d cdc4 7bbe f6fe 42be 070d 8a3d
00000030: a9c4 fe3d 7a8c 283d d81f b93d 748e b2be
00000040: c5f4 ddbd 739f ab3e 4f29 17be 0854 4e3e
00000050: b308 e7bd a7cd 0f3e 011c 233c 8cf1 67be
00000060: 38aa 173e d757 3dbe 896c 75bd fe92 583d
00000070: c231 323d 986e 763d 293a bb3e d334 b7bd
00000080: 18ff 95bd ba98 85bd 96a2 23bd 4ce0 373e
00000090: cb3e 4abe 75cc 0e3e d7d0 633d fe19 053d
000000a0: e968 3ebd 9518 cdbd 72b7 9dbe 40f1 7b3e
000000b0: 93c1 55bd 1d00 a4be c88a 693d ce8c 59bd
000000c0: 50d2 1abd 76f9 f4bc 821f b73d fb72 5c3e
000000d0: 96e0 e9bd 1de4 513c 58ba 4abb a863 f63d
000000e0: af71 713e 238b e7bd 5055 68be d716 7e3d
000000f0: fd6d a93d 78eb 153d e820 6b3e c5aa 1dbe
00000100: c768 de3d a61e 243e 7719 65be 82d4 483e
00000110: d585 dbbd 81c6 9ebb 6bc6 a93d fb94 893d
00000120: e87a 293e bc8c 223e 2d3a 713e 7e98 09bc
00000130: 85e4 66bd 624c b03d 5369 e83d 1a72 febd
00000140: 80cb 023d b416 85be 6279 46be 0008 60be
00000150: 3621 023c 0bd8 27be 9acd 8d3d aa8f b5bd
00000160: 8d2d 60be 9c7e d13d 8858 233d 3e7b c4bd
00000170: d76c 1cbe ad7b 923e 10ac a6be 2fda bf3c
00000180: e695 81bd cd92 adbe 9ff3 0abe 998a fcba
00000190: 34a2 ce3e 8330 63be 40e6 a3be 3397 c43a
000001a0: b4e2 11be 8281 2fbd 67e6 dabd 188c a33c
000001b0: 29e8 c53c a0c1 9e3e 0041 6cbb 9bbb 56be
000001c0: 8234 ec3c b73a adbd 2d83 02bb 4ef1 7d3c
000001d0: 693b 743d 5a5f 6bbc 4115 a6bd 8019 473e
000001e0: 7604 68be dae8 e6bd d594 7bbd 76f2 3abe
000001f0: dc52 99bd 38fd 66bd ff52 633c 2acd 833e
00000200: 57c6 9cbc af5d 06be 107b e5bd b98f 953d
00000210: 02d3 f3bd 55a3 963e 7066 02bc f761 123e
00000220: 8b3d c3bd f394 afbd 0284 a9bd db65 aabd
00000230: bc81 5abd 0f3b b7bd 8960 c03d 1b22 a2be
00000240: e684 323d 2acd 8f3e 6258 1b3e 6bfe b4bd
00000250: b989 94be bf49 e93d bc63 2dbe e69c 1b3d
00000260: 3a82 10be de06 e4bd 0dc1 033d a78a a43c
00000270: 09b1 a13d 45e7 723e e406 1cbe 02df 3bbe
00000280: 22c1 15be 5e35 d73d 66d5 40be db4f 66bd
00000290: 60f2 2b3e 869d 8b3e 1b39 8e3e 67a9 023d
000002a0: c5b5 d43c 26b7 3a3d 92a2 8a3e 6247 1bbe
000002b0: 812b f23d 7a94 673e ccd5 c4bd 2962 03be
000002c0: 092c 563e 9235 a03d 6dab 893d b0d7 ac3d
000002d0: a9a4 aebd bdf7 a1bc 3a2f f63a ea29 e53d
000002e0: d108 083e 424f 69be f035 663e 3b24 673e
000002f0: 179f 653e af38 56be 655e 613c bdba a5be
00000300: 59cc 193e 2471 ba3d 9e68 2fbe 4b5f 4dbd
00000310: 632d cabc 0625 43bc 9f7d 563c e4ae 0b3e
00000320: 0d5a 94bd d3ab e4bd 8de4 453e 349b 1fbe
00000330: 7380 74bd 7ae9 9a3d 1e78 fd3c ce57 6ebe
00000340: 4597 c8bd 6f9a afbe 1032 023c d6a2 db3d
00000350: 5073 863d 1d23 f2bd bd88 7d3e e4c5 7d3e
00000360: b1dd 18bd 4f71 84be 0e47 943b af04 cdbd
00000370: 66f2 acbd eca2 453d de71 343d e81a d9bd
00000380: 69a3 13be 0e70 76be ef7f 203d 4b39 423d
00000390: 8568 bcbc ac61 3c3e 1627 b43e 8738 8e3e
000003a0: 6f23 a23d 245f 6bbd d304 8e3d 5135 63be
000003b0: bbbe ed3d 84b9 2c3e 002b b53c 7be0 a13d
000003c0: 81de 45be b2d8 3fbd 818a 2f3d b5f5 1fbd
000003d0: 7ca0 25bd 004c 9fbd ebe6 c4bd db2a 1c3e
000003e0: 1e14 7bbe b4b8 983e ad1c 03bd 5976 9e3e
000003f0: 36af 4c3d 0234 19be 958f 1ebd 36a0 a63c
-0.055148255 -0.15664563 -0.2123797 -0.2708988 -0.10593124 -0.16096371 0.052429654 -0.062534705
0.037580617 -0.24586792 -0.19042572 0.06740766 0.12439854 0.041149594 0.09039277 -0.34874308
-0.10837702 0.33520088 -0.14761852 0.20149243 -0.11280956 0.14043294 0.009955407 -0.22650737
0.14811027 -0.1849054 -0.05991796 0.052874558 0.043504484 0.060164064 0.3656781 -0.08945622
-0.07324046 -0.06523271 -0.039949976 0.17956656 -0.19750516 0.13945182 0.055619087 0.03249549
-0.04648677 -0.10014454 -0.3080402 0.24603748 -0.05218656 -0.32031336 0.057017118 -0.053112797
-0.037798226 -0.029904108 0.089415565 0.21528237 -0.114197895 0.012810734 -0.0030933823 0.12030727
0.23578523 -0.11305835 -0.22688794 0.0620335 0.08272932 0.036601514 0.22961771 -0.15397175
0.108598284 0.16027316 -0.22372995 0.19612315 -0.10718886 -0.004845441 0.08289798 0.06717869
0.16550791 0.15873998 0.23557349 -0.008398173 -0.056370277 0.08608319 0.11348214 -0.12424107
0.031932354 -0.25993884 -0.19382241 -0.21878052 0.007942488 -0.16391008 0.06923981 -0.08865292
-0.21892376 0.10229227 0.03987935 -0.09593819 -0.15275894 0.28609982 -0.32553148 0.023419468
-0.06327419 -0.33901063 -0.13569497 -0.001926738 0.40358126 -0.22186475 -0.32011604 0.0014998674
-0.14246637 -0.042848118 -0.10688477 0.019964263 0.024158554 0.310071 -0.0036049485 -0.20970003
0.028833631 -0.084584646 -0.0019914613 0.015499426 0.05962697 -0.014365995 -0.081095226 0.19443321
-0.22657952 -0.11274882 -0.061421234 -0.18256554 -0.07486507 -0.056393832 0.013874768 0.25742465
-0.019137545 -0.13121675 -0.11205113 0.073028035 -0.11905481 0.29421487 -0.007958993 0.14295183
-0.09533223 -0.08573332 -0.082771316 -0.08320209 -0.05334638 -0.089468114 0.093934126 -0.31666645
0.043583773 0.28086215 0.15170434 -0.08837589 -0.29011324 0.11391019 -0.16932577 0.037991427
-0.14112177 -0.11134122 0.03216653 0.020085646 0.07895095 0.23721035 -0.15237004 -0.1834679
-0.14624456 0.10508226 -0.18831405 -0.0562285 0.16791677 0.27268618 0.27777943 0.031899836
0.02596558 0.04558482 0.27077156 -0.15163949 0.11824704 0.22615233 -0.09611091 -0.12830414
0.20915236 0.07822718 0.0672215 0.084395766 -0.085275 -0.019771451 0.0018782385 0.11189635
0.13284613 -0.2278414 0.22481513 0.22572415 0.22423969 -0.2092006 0.013755416 -0.32369033
0.15019359 0.09103611 -0.17129752 -0.050139707 -0.024679845 -0.011910683 0.013091474 0.13640934
-0.07243738 -0.11165585 0.19325466 -0.15586549 -0.05969281 0.07564063 0.030941065 -0.23275682
-0.097944774 -0.3429751 0.007946506 0.10724418 0.06564963 -0.118231036 0.24759193 0.2478252
-0.037320796 -0.25867698 0.004525072 -0.10010659 -0.08444671 0.048251078 0.044053905 -0.10600835
-0.14417805 -0.24066183 0.039184507 0.04741792 -0.022999058 0.18396634 0.3518607 0.27777502
0.07916915 -0.05746378 0.06934514 -0.22188307 0.116086446 0.16867644 0.02211523 0.079041444
-0.1932316 -0.046837516 0.042856697 -0.039052684 -0.040436253 -0.07778168 -0.096143566 0.15250723
-0.24519393 0.29828417 -0.03200977 0.30949667 0.04997178 -0.14961246 -0.03871115 0.020340066

fc3.bias f4 [10]
00000000: c7fe d3bd 7e88 cfbd 882e 583d 727e 54bb
00000010: dec7 a5bd ffe7 4f3c cfbb 5a3c 71c9 423d
00000020: a3a2 723d aeb5 e7bd
-0.10351329 -0.10133456 0.05277875 -0.0032424 -0.08094762 0.0126895895 0.013350441 0.04755539
0.059237134 -0.113139495
